Baseline/cifar10_model_1_weights.pth (torch, 252056 bytes, 10 tensors)

0.weight f4 [6, 3, 5, 5]
0.1032027 -0.18566959 -0.100948334 0.09621856 0.21942723 -0.17662865 0.14164178 0.11719438
0.25514692 -0.07361107 -0.19823486 0.21967086 0.16873194 -0.1945815 -0.040892966 0.25626343
0.103011556 0.04405334 -0.2763448 0.053609174 0.03929732 0.074369736 0.19012192 0.22646321
0.10242221 -0.09977446 0.11366021 0.13228834 -0.02851435 -0.107860975 0.14791626 -0.27030933
0.06661687 -0.1871216 0.07069156 -0.1613124 0.001955715 -0.0008891131 0.12676838 0.00363933
0.21718451 -0.0345796 0.24744362 -0.1416528 -0.16070698 0.08489927 0.14026523 -0.18427089
-0.007972178 0.009669735 0.09530455 0.09912467 -0.16355567 -0.15389608 -0.104582705 -0.052656792
0.16471653 0.11528448 0.042079147 0.2780048 -0.20677361 -0.17817712 0.16642058 -0.047640253
-0.20251523 -0.0806832 0.2076896 -0.08008839 0.21841918 -0.04095986 -0.15171352 0.16741957
-0.17529608 -0.15287636 0.054545946 -0.061806787 -0.041537274 0.21455519 -0.17945194 0.19691902
-0.043678567 0.14397158 0.072180256 0.24892709 0.13100088 0.033699274 -0.23376909 0.16396996
0.08250631 -0.01165819 0.20798469 0.046552107 0.28175855 -0.28143117 0.14999504 0.2826816
-0.08114855 0.16064788 -0.17248754 -0.14417295 0.02233773 0.104061246 -0.02638988 -0.10793933
-0.03761183 0.055554304 0.09452631 -0.28187504 0.27724174 -0.0192133 -0.20569475 -0.26216075
0.20492142 -0.1633258 -0.11473115 -0.016980864 0.22439024 0.10561151 0.08472475 -0.06234067
0.11923182 0.23560366 -0.27194554 -0.24961244 -0.06968309 -0.0492829 -0.15995786 0.08246935
0.25231 -0.059626903 -0.27430424 -0.28090107 -0.17200835 0.17266904 0.21688436 -0.25642928
-0.06559205 0.17547673 0.10665156 0.26024267 -0.10293795 -0.19130623 0.14832623 0.024602769
-0.22873184 0.15487173 -0.16603048 0.11661953 -0.031874266 0.09322991 -0.25416493 -0.095342785
0.0054522175 0.039184265 -0.14938135 -0.2088852 0.04343068 0.14291474 -0.25243318 0.0542549
0.18776496 0.11546831 -0.014401697 0.010290979 -0.09573988 -0.23898971 0.06679621 -0.055718
0.22659928 0.101076104 0.27840388 -0.10977818 -0.021718087 -0.05520339 -0.17324728 -0.07598282
-0.20128068 -0.17001745 -0.16998339 -0.13662896 -0.109666005 -0.2149341 -0.27056482 -0.037184715
0.121944934 0.036583737 0.2820566 -0.21810354 -0.16531456 -0.25798947 0.22590186 0.22830342
-0.19953091 -0.12408965 -0.25752893 -0.07141391 -0.253689 0.17884685 -0.08337556 0.19535801
0.2753691 0.17800817 -0.11436644 0.1428493 0.22666107 -0.041501954 -0.19448473 0.039303757
0.059682436 0.002691262 0.014938057 0.085774034 -0.14407428 -0.048366375 0.2577932 0.15832353
0.23007895 -0.050402272 0.23341513 0.040050298 0.0498809 -0.25825006 0.25762433 0.17078397
0.117914915 0.14105296 0.042272214 -0.2139377 -0.104047894 -0.11664249 0.05152041 -0.2740396
0.18472458 0.16874932 0.19106458 -0.20001549 -0.17916732 -0.20960419 0.08883629 -0.25521845
0.15513517 -0.023269815 0.2087575 0.25426453 -0.057511702 0.086038105 -0.08053825 -0.120219626
-0.013712208 -0.1912446 -0.07088581 0.10948747 0.16677967 0.03874533 -0.052147254 -0.11588691
00000000: f05b d33d 2b20 3ebe 00be cebd 3d0e c53d
00000010: 88b1 603e 24de 34be 8b0a 113e 9b03 f03d
00000020: 9ea2 823e 67c1 96bd 14fe 4abe 66f1 603e
00000030: 11c8 2c3e 5f40 47be 627f 27bd f634 833e
00000040: b9f7 d23d 4671 343d 117d 8dbe 4b95 5b3d
00000050: 3af6 203d 294f 983d 52af 423e f9e5 673e
00000060: bcc2 d13d 8d56 ccbd afc6 e83d 9876 073e
00000070: ed96 e9bc 37e6 dcbd 5c77 173e fc65 8abe
00000080: 6d6e 883d ce9c 3fbe bdc6 903d 142f 25be
00000090: 742b 003b 5f13 69ba 92cf 013e d381 6e3b
000000a0: 9e65 5e3e 57a3 0dbd dc61 7d3e 6e0d 11be
000000b0: 5f90 24be abdf ad3d b0a1 0f3e 82b1 3cbe
000000c0: bd9d 02bc cf6d 1e3c 082f c33d e001 cb3d
000000d0: 237b 27be ef96 1dbe 752f d6bd a6ae 57bd
000000e0: 73ab 283e 451a ec3d 2f5b 2c3d a556 8e3e
000000f0: 76bc 53be 1074 36be 286a 2a3e 6d22 43bd
00000100: 2760 4fbe 3c3d a5bd 95ac 543e 6205 a4bd
00000110: 47a9 5f3e 87c5 27bd ca5a 1bbe 0970 2b3e
00000120: d180 33be 9f8b 1cbe 926b 5f3d 1d29 7dbd
00000130: fd22 2abd 5bb4 5b3e 40c2 37be 24a5 493e
00000140: 4ce8 32bd 496d 133e 3ed3 933d bee6 7e3e
00000150: 1825 063e 4008 0a3d 2a61 6fbe bee7 273e
00000160: 11f9 a83d fe01 3fbc f0f9 543e 6cad 3e3d
00000170: a842 903e bf17 90be 4d98 193e a5bb 903e
00000180: 3631 a6bd e180 243e 93a0 30be 13a2 13be
00000190: 9dfd b63c 101e d53d 972f d8bc 4c0f ddbd
000001a0: dd0e 1abd e98c 633d 0397 c13d ed51 90be
000001b0: a1f2 8d3e 3665 9dbc a5a1 52be ef39 86be
000001c0: ecd6 513e e13e 27be 2af8 eabd 741b 8bbc
000001d0: 8ec6 653e d94a d83d 2b84 ad3d ee58 7fbd
000001e0: d02f f43d 1642 713e 723c 8bbe 679a 7fbe
000001f0: 02b6 8ebd dedc 49bd fecb 23be b1e5 a83d
00000200: c72e 813e 573b 74bd 9b71 8cbe 44d2 8fbe
00000210: f522 30be 27d0 303e ef16 5e3e b34a 83be
00000220: 2055 86bd 2cb0 333e 226c da3d 873e 853e
00000230: 22d1 d2bd c8e5 43be d5e2 173e bf8b c93c
00000240: ae38 6abe b296 1e3e e503 2abe 38d6 ee3d
00000250: 978e 02bd 53ef be3d e821 82be 1443 c3bd
00000260: 84a8 b23b ae7f 203d 6df7 18be 00e6 55be
00000270: 5ee4 313d 3e58 123e ec3e 81be 633a 5e3d
00000280: 7545 403e a67a ec3d 18f5 6bbc 7f9b 283c
00000290: 4513 c4bd b8b9 74be 74cc 883d 8f38 64bd
000002a0: a409 683e fd00 cf3d f48a 8e3e 62d3 e0bd
000002b0: 21ea b1bc f31c 62bd bc67 31be e19c 9bbd
000002c0: 861c 4ebe 0e19 2ebe 2010 2ebe 76e8 0bbe
000002d0: 9298 e0bd af17 5cbe 7987 8abe 004f 18bd
000002e0: 44be f93d d4d8 153d b969 903e 8956 5fbe
000002f0: 3848 29be 3217 84be d152 673e 5fc8 693e
00000300: d551 4cbe b722 febd d5da 83be 7541 92bd
00000310: 86e3 81be a123 373e cec0 aabd ee0b 483e
00000320: 2efd 8c3e c647 363e f438 eabd 1647 123e
00000330: d719 683e f4fd 29bd 0127 47be fafc 203d
00000340: 9275 743d e25f 303b c1be 743c 4caa af3d
00000350: 3588 13be d21b 46bd 78fd 833e 901f 223e
00000360: d199 6b3e 9d72 4ebd 6004 6f3e c80b 243d
00000370: ea4f 4c3d 5a39 84be 56e7 833e fee1 2e3e
00000380: 607d f13d 3070 103e a125 2d3d 7c12 5bbe
00000390: 1017 d5bd 42e2 eebd 1107 533d eb4e 8cbe
000003a0: 7128 3d3e 9fcc 2c3e 6fa6 433e dcd0 4cbe
000003b0: a377 37be 7ba2 56be cdef b53d feab 82be
000003c0: c1db 1e3e 57a0 bebc 87c4 553e f62e 823e
000003d0: 6491 6bbd bf34 b03d 3df1 a4bd b535 f6bd
000003e0: 2ba9 60bc a0d5 43be 942c 91bd f73a e03d
000003f0: 4ac8 2a3e 6cb3 1e3d 5c98 55bd 1e56 edbd

0.bias f4 [6]
-0.023861296 -0.06034771 -0.027570374 0.09671788 -0.058330808 0.026894778
00000000: c478 c3bc 292f 77bd 44db e1bc 0614 c63d
00000010: 49ec 6ebd 7052 dc3c

3.weight f4 [16, 6, 5, 5]
-0.016886009 0.0559428 -0.08972925 0.18199633 -0.0273324 0.14874946 0.010789394 0.060305715
-0.19880961 0.17717014 -0.10939836 -0.028121555 0.054695416 -0.15426755 -0.08606203 -0.18948217
-0.07543676 -0.0028768778 -0.067046575 0.13918038 -0.17285691 0.15264359 0.1752479 -0.004208541
-0.061829995 0.15220122 -0.17157903 0.12783204 -0.06730449 0.13600838 0.09688506 0.005419278
-0.11927288 0.10027468 0.10488713 -0.0008826256 -0.10057572 0.039625622 -0.14391427 0.0061137914
-0.054640867 -0.13404478 -0.03509785 -0.19415012 0.025409842 0.02814057 -0.03490175 -0.12776412
-0.029554976 0.18905191 -0.1723852 0.058861185 -0.05109725 0.061009765 -0.19614989 -0.016786529
-0.010531318 -0.076193884 -0.14251316 -0.09766324 -0.045668293 0.025874639 -0.035617616 0.105062604
0.18920623 0.15180014 -0.015662385 -0.058876242 0.03789873 -0.10802506 -0.065808594 0.1400725
0.10509405 -0.19339527 0.127647 0.14109622 0.15559994 0.047799207 -0.13698508 -0.03510846
0.03735864 0.09818659 -0.10730063 -0.1265849 0.14901936 -0.12751423 0.09915202 -0.04848392
0.060736608 -0.17832005 -0.18437836 -0.082498394 -0.15819822 0.104361296 0.11573868 -0.039173722
0.12965338 0.16683367 -0.19104078 -0.13937594 0.13943262 0.13707101 0.0022105693 0.06636999
0.106486395 -0.17704906 0.07534142 0.0064227344 0.13618067 0.12789066 0.054022383 -0.021648085
0.15050773 0.05979333 -0.11526983 0.13179818 -0.19913597 0.11722734 0.07638323 -0.06801542
-0.03808712 0.12136509 0.06838324 -0.030405259 -0.0001568675 -0.037051488 -0.10698665 0.03414042
-0.05605037 0.06967912 0.030057907 0.03387041 0.17253302 0.08627548 0.048149038 0.0020236492
-0.1484795 -0.18759252 0.121395305 -0.028538048 -0.09194048 -0.057844806 0.014134121 0.06548164
-0.1511309 0.121090226 0.19887863 0.1376215 -0.13364641 -0.13489687 -0.016787697 0.15094851
0.09099829 -0.045753133 -0.19179225 0.17212825 -0.07384602 0.072914295 -0.19821095 0.18365541
0.14172745 -0.030316819 -0.10484401 -0.05284169 -0.19758105 -0.13008526 -0.1084718 0.05337126
-0.18578477 0.07367604 -0.16013645 0.075787306 0.15229039 0.046939828 -0.05747757 -0.054286946
-0.053563952 -0.19567831 -0.15955208 -0.09055115 -0.06064384 0.16685608 -0.18302834 -0.06101146
-0.04411298 -0.13202526 -0.18693347 0.1339437 0.1426616 -0.19537194 0.11228035 -0.15564434
-0.033097576 -0.09340497 -0.15320858 0.13125734 -0.14067598 0.098408125 -0.17268725 -0.14151311
-0.1873582 -0.12502836 -0.10436861 0.11719554 -0.068839215 0.1851485 -0.11152018 0.11846385
0.04882541 -0.12161335 -0.101772025 -0.193802 -0.09809627 0.109374575 0.17378794 0.048128035
0.012223673 0.052168608 -0.1860492 0.12727645 0.0421994 0.15997782 -0.01653328 -0.17504346
-0.044449236 -0.039424863 0.11453416 -0.019290997 0.145905 0.19813287 -0.0009013653 0.010800791
0.06278036 -0.010613525 0.119607404 0.18172686 -0.13435028 0.13864277 0.15410028 -0.12146835
0.18476632 -0.14293014 -0.16485538 -0.046304096 0.18150766 -0.07174736 0.110133626 0.051046442
-0.040974535 0.10278361 -0.19479717 0.026062464 0.11903375 0.124561645 -0.077713124 0.12440906
00000000: 8754 8abc 4724 653d f8c3 b7bd 3f5d 3a3e
00000010: 33e8 dfbc c751 183e 00c6 303c 2003 773d
00000020: bf94 4bbe 176c 353e 3f0c e0bd 2d5f e6bc
00000030: 4d08 603d 50f8 1dbe 4a41 b0bd 9d07 42be
00000040: 977e 9abd 008a 3cbb b74f 89bd 4d85 0e3e
00000050: 6701 31be 9a4e 1c3e 2f74 333e cde7 89bb
00000060: 7341 7dbd a3da 1b3e 6ab2 2fbe 67e6 023e
00000070: f0d6 89bd c845 0b3e ad6b c63d 3394 b13b
00000080: 5745 f4bd d05c cd3d 10cf d63d 0060 67ba
00000090: a5fa cdbd 7a4e 223d 435e 13be 3356 c83b
000000a0: 1acf 5fbd 0943 09be c3c2 0fbd 4acf 46be
000000b0: 4d28 d03c 0d87 e63c 23f5 0ebd 99d4 02be
000000c0: 471d f2bc d396 413e bf85 30be 6d18 713d
000000d0: 5a4b 51bd 60e5 793d 84db 48be e783 89bc
000000e0: 8d8b 2cbc 8a0b 9cbd f8ee 11be aa03 c8bd
000000f0: ad0e 3bbd 0df7 d33c c7e3 11bd 102b d73d
00000100: 47bf 413e 7f71 1b3e 674e 80bc 3728 71bd
00000110: b33b 1b3d 3e3c ddbd a8c6 86bd 2a6f 0f3e
00000120: 8d3b d73d 6909 46be e5b5 023e 877b 103e
00000130: 9755 1f3e 1ac9 433d d145 0cbe e3cd 0fbd
00000140: 6005 193d 0d16 c93d 6fc0 dbbd 799f 01be
00000150: 8898 183e 1793 02be 3710 cb3d 1397 46bd
00000160: f3c6 783d 8899 36be aecd 3cbe ebf4 a8bd
00000170: b7fe 21be 60bb d53d 6708 ed3d a074 20bd
00000180: dbc3 043e 72d6 2a3e 32a0 43be 91b8 0ebe
00000190: 6dc7 0e3e 585c 0c3e 33df 103b fdec 873d
000001a0: 8a15 da3d 594c 35be 9a4c 9a3d cd75 d23b
000001b0: f272 0b3e c5f5 023e 9346 5d3d 5357 b1bc
000001c0: b31e 1a3e dae9 743d 9712 ecbd 1af6 063e
000001d0: 4dea 4bbe e314 f03d d06e 9c3d ab4b 8bbd
000001e0: 3d01 1cbd 438e f83d 830c 8c3d 7314 f9bc
000001f0: cd7c 24b9 4dc3 17bd d11b dbbd d3d6 0b3d
00000200: 1395 65bd edb3 8e3d 003c f63c b3bb 0a3d
00000210: 7fac 303e 33b1 b03d ed37 453d 339f 043b
00000220: 030b 18be 4118 40be 1a9e f83d a0c8 e9bc
00000230: 4a4b bcbd adee 6cbd cd92 673c 3d1b 863d
00000240: 0fc2 1abe 27fe f73d d7a6 4b3e a7ec 0c3e
00000250: 9bda 08be 6822 0abe 5a86 89bc 3f92 1a3e
00000260: 505d ba3d a367 3bbd 3065 44be 6342 303e
00000270: 953c 97bd 1754 953d d0f7 4abe 2a10 3c3e
00000280: 0021 113e fa5a f8bc 75b8 d6bd 8770 58bd
00000290: b052 4abe 1235 05be 7726 debd d39b 5a3d
000002a0: 5d3e 3ebe 77e3 963d cffa 23be 6036 9b3d
000002b0: 03f2 1b3e fa43 403d 9a6d 6bbd fd5b 5ebd
000002c0: e065 5bbd e55f 48be 9f61 23be e272 b9bd
000002d0: ad65 78bd 52dc 2a3e c86b 3bbe 27e7 79bd
000002e0: d0af 34bd a131 07be 7d6b 3fbe 8a28 093e
000002f0: e215 123e 950f 48be 3df3 e53d 3b61 1fbe
00000300: 5391 07bd 1b4b bfbd b6e2 1cbe 5368 063e
00000310: 5d0d 10be 338a c93d edd4 30be d0e8 10be
00000320: d4da 3fbe 6f07 00be 36bf d5bd 3704 f03d
00000330: 93fb 8cbd 9297 3d3e b164 e4bd 2d9d f23d
00000340: 27fd 473d 6c10 f9bd da6d d0bd 0874 46be
00000350: b2e6 c8bd c7ff df3d 77f5 313e e721 453d
00000360: cd45 483c c0ae 553d ae83 3ebe c254 023e
00000370: 47d9 2c3d 3ad1 233e cd70 87bc 983e 33be
00000380: 6710 36bd f77b 21bd e390 ea3d 2708 9ebc
00000390: 1f68 153e 58e3 4a3e 9a49 6cba cdf5 303c
000003a0: fd92 803d 5ae4 2dbc baf4 f43d 9b16 3a3e
000003b0: 1f93 09be 5ff8 0d3e 77cc 1d3e 66c4 f8bd
000003c0: 6233 3d3e 475c 12be d9cf 28be 5da9 3dbd
000003d0: 25dd 393e 48f0 92bd bd8d e13d 1316 513d
000003e0: ead4 27bd 3780 d23d e978 47be f380 d53c
000003f0: f7c7 f33d 2d1a ff3d 0f28 9fbd 2dca fe3d

3.bias f4 [16]
-0.052094538 0.017846584 -0.056380786 -0.080763675 0.07616657 0.058082387 0.0032539368 0.07117672
0.02540449 -0.065543264 0.0061075315 -0.03214334 0.03228136 0.08067575 0.058980525 0.04760523
00000000: 1561 55bd 0033 923c 8aef 66bd 6d67 a5bd
00000010: 38fd 9b3d cce7 6d3d 0040 553b 1ac5 913d
00000020: 141d d03c 8c3b 86bd b021 c83b bca8 03bd
00000030: 7639 043d 5439 a53d 9095 713d b4fd 423d

7.weight f4 [120, 400]
-0.00820159 -0.11674959 0.11783665 0.10347758 -0.042301722 -0.0717977 -0.055290207 -0.018834839
0.06927324 -0.0071926937 -0.07600804 0.115225405 -0.036643345 -0.10254698 -0.037549097 0.07741022
-0.042839836 -0.10931337 0.11802867 -0.10483406 0.09093152 0.0333961 -0.05799489 0.11785811
-0.05533181 -0.111134045 -0.098069824 0.10143609 -0.040382743 -0.12086255 0.018641068 -0.011427882
-0.0036572802 0.050815474 -0.033777002 0.0132188685 -0.029831829 0.10765631 -0.057562545 -0.10944775
0.0828794 0.0036500387 0.048118882 0.099801466 0.09467795 0.04770897 0.08473291 0.04901651
-0.12188044 0.07183056 -0.054355267 -0.08989768 -0.009337069 0.049945585 0.09244358 0.055549745
0.03138606 -0.026994424 -0.091279864 0.0030740649 0.077056736 -0.07202667 0.06363396 0.092564054
0.101648174 0.0043475293 0.10881877 -0.032417063 -0.04822332 -0.09874243 -0.09120134 0.035401583
-0.0039484208 -0.026210932 -0.109305345 -0.10822206 0.001758494 -0.024786497 0.046972204 -0.060109437
0.10644421 -0.063311346 0.08153618 -0.036700122 -0.09706937 0.063916214 -0.113018215 -0.085563004
0.08080588 -0.115572885 -0.09027046 -0.023497505 -0.04199185 -0.08372733 -0.0138629 -0.028001482
0.0061069867 -0.015610029 -0.053256188 -0.043855805 0.10394911 0.11596159 0.09962728 -0.01708353
-0.011022496 -0.0078048464 0.0020721187 -0.11162811 0.05189753 -0.013492445 -0.045046203 -0.040763438
-0.036553394 0.0878177 0.008257362 0.10290723 0.0017078754 -0.10169145 -0.07156762 -0.10209518
-0.111794315 0.095096454 0.078036085 -0.01721079 -0.10934892 0.03639385 -0.099887915 -0.079183914
-0.034300663 -0.06653365 0.09912052 0.09440119 -0.04946025 -0.06589526 -0.079157986 -0.03484569
-0.1125128 0.1194432 0.03294512 0.03127517 0.053432643 -0.0767221 -0.011188937 0.10713324
0.06625957 0.0006836349 0.014248788 0.04447992 -0.011696225 -0.00019222486 -0.10055038 0.08841872
-0.03939871 -0.09378091 -0.09844332 0.030025419 0.08158881 -0.064815395 0.020244522 -0.07831768
0.0009432392 0.032887843 -0.10283982 -0.100202195 -0.058929995 -0.03213905 -0.099220686 -0.032746565
-0.03390376 0.07943102 0.09200571 0.008555641 -0.08328533 -0.048683137 0.063271545 -0.012889614
0.050458387 -0.005651668 -0.07277587 0.001753822 -0.107692964 -0.037471555 -0.11453292 -0.096569456
-0.023621693 -0.057555556 0.09247357 0.081513114 0.026185637 0.117131695 0.01577558 -0.06294606
0.05085072 0.015476701 -0.04407361 -0.014961974 -0.08476173 0.04795371 0.059824537 0.09381172
0.022156566 0.03161502 -0.096490115 0.087081395 0.052925143 0.028358717 -0.07686796 -0.0990346
0.0074795857 -0.03974991 0.0045048157 0.11871839 0.002092734 -0.0028676342 0.083675295 0.023295972
0.11231449 -0.08352502 -0.036335252 -0.012346776 0.04642911 -0.099333145 -0.061932713 0.053534582
-0.06252322 0.11936699 0.050328355 -0.01992454 -0.04096336 -0.0771534 0.04299305 -0.05674712
-0.059248075 -0.040887177 -0.018203998 -0.04282711 -0.07006888 -0.05629586 0.0601094 -0.06849772
-0.06438538 0.119312875 -0.0025102822 0.07036607 -0.014336441 -0.009722759 -0.11755463 -0.057164434
-0.10841921 -0.0027822892 -0.09490219 -0.107800655 -0.10226956 -0.07320154 0.116348356 -0.11055438
00000000: f65f 06bc 691a efbd 5754 f13d 0eec d33d
00000010: 9244 2dbd ac0a 93bd fc77 62bd 854b 9abc
00000020: 21df 8d3d b0b0 ebbb 1aaa 9bbd 4cfb eb3d
00000030: 5517 16bd 2704 d2bd 15cd 19bd 4089 9e3d
00000040: d378 2fbd b0df dfbd 04b9 f13d 3db3 d6bd
00000050: 4e3a ba3d 59ca 083d 0d8c 6dbd 985f f13d
00000060: 9ca3 62bd 3f9a e3bd d5d8 c8bd babd cf3d
00000070: 6068 25bd c986 f7bd 27b5 983c 033c 3bbc
00000080: fbae 6fbb e323 503d c159 0abd f493 583c
00000090: e161 f4bc e97a dc3d b4c6 6bbd 2426 e0bd
000000a0: adbc a93d 7d35 6f3b 4e18 453d b664 cc3d
000000b0: 83e6 c13d 7b6a 433d 7388 ad3d 89c5 483d
000000c0: 749c f9bd e71b 933d a1a3 5ebd 461c b8bd
000000d0: 81fa 18bc be93 4c3d 0f53 bd3d 2188 633d
000000e0: ab8e 003d 6923 ddbc f0f0 babd 4076 493b
000000f0: eccf 9d3d b882 93bd 8652 823d 3992 bd3d
00000100: eb2c d03d b875 8e3b 60dc de3d c1c7 04bd
00000110: d185 45bd 7939 cabd c5c7 babd 4001 113d
00000120: c161 81bb 4fb8 d6bc 7bdb dfbd 87a3 ddbd
00000130: 447d e63a 0d0d cbbc ed65 403d 5035 76bd
00000140: 6cff d93d 61a9 81bd 71fc a63d de52 16bd
00000150: 4ecc c6bd 81e6 823d 1876 e7bd a83b afbd
00000160: 8e7d a53d 7ab1 ecbd b8df b8bd d77d c0bc
00000170: a5ff 2bbd 3c79 abbd 3821 63bc 5d63 e5bc
00000180: 1e1d c83b 35c1 7fbc 2923 5abd 25a2 33bd
00000190: 45e3 d43d 457d ed3d 6309 cc3d c2f2 8bbc
000001a0: b397 34bc ccbf ffbb 62cc 073b 479d e4bd
000001b0: 8192 543d 6b0f 5dbc 5e82 38bd 90f7 26bd
000001c0: 03b9 15bd c4d9 b33d e349 073c 07c1 d23d
000001d0: cada df3a 9b43 d0bd 0b92 92bd 4717 d1bd
000001e0: 6bf4 e4bd eec1 c23d 62d1 9f3d a5fd 8cbc
000001f0: 54f2 dfbd b811 153d 0992 ccbd 2d2b a2bd
00000200: da7e 0cbd cb42 88bd b3ff ca3d 6955 c13d
00000210: d596 4abd 18f4 86bd 951d a2bd 5bba 0ebd
00000220: 1c6d e6bd a39e f43d 76f1 063d 651a 003d
00000230: 30dc 5a3d 7a20 9dbd ce51 37bc ac68 db3d
00000240: 19b3 873d f635 333a c073 693c 9430 363d
00000250: 86a1 3fbc f88f 49b9 5ced cdbd e014 b53d
00000260: 8b60 21bd 3510 c0bd a79c c9bd def7 f53c
00000270: 0918 a73d efbd 84bd d7d7 a53c 0565 a0bd
00000280: b643 773a 67b5 063d af9d d2bd cf36 cdbd
00000290: 9460 71bd 3da4 03bd 3734 cbbd 4321 06bd
000002a0: abde 0abd bbac a23d 7d6d bc3d f62c 0c3c
000002b0: 8091 aabd f867 47bd 8394 813d f62e 53bc
000002c0: 74ad 4e3d a131 b9bb 840b 95bd 80e0 e53a
000002d0: 218e dcbd c67b 19bd 3c90 eabd 35c6 c5bd
000002e0: 4882 c1bc 60bf 6bbd c862 bd3d 59f0 a63d
000002f0: 4383 d63c bee2 ef3d ca3b 813c dde9 80bd
00000300: d848 503d fd91 7d3c 8886 34bd 1123 75bc
00000310: 8f97 adbd 1c6b 443d 930a 753d 5c20 c03d
00000320: b081 b53c c07e 013d 9c9c c5bd bb57 b23d
00000330: 09c8 583d 8a50 e83c f36c 9dbd a7d2 cabd
00000340: 5017 f53b cdd0 22bd 229d 933b a122 f33d
00000350: 4026 093b ebee 3bbb f45d ab3d 32d7 be3c
00000360: 2405 e63d 2a0f abbd 46d4 14bd 224a 4abc
00000370: 732c 3e3d 2d6f cbbd 28ad 7dbd 1447 5b3d
00000380: 2d0c 80bd ae76 f43d 1b25 4e3d ca38 a3bc
00000390: 32c9 27bd 9a02 9ebd 7b19 303d ab6f 68bd
000003a0: 1cae 72bd 5079 27bd 8d20 95bc 7b6b 2fbd
000003b0: 4680 8fbd 7d96 66bd 4635 763d 8848 8cbd
000003c0: 7bdc 83bd 4f5a f43d 8c83 24bb 161c 903d
000003d0: 64e3 6abc 354c 1fbc 7bc0 f0bd 4125 6abd
000003e0: e40a debd 1157 36bb 145c c2bd 97c6 dcbd
000003f0: b472 d1bd b0ea 95bd 0c48 ee3d 566a e2bd

7.bias f4 [120]
0.009899765 0.046517994 -0.010486625 0.014577065 -0.0109124 -0.013856482 0.038395885 -0.029579127
0.0013437495 7.83056e-06 -0.037516493 -0.035434306 0.026168179 -0.0003944449 0.018143188 0.023199033
-0.033866484 0.01629803 0.0032102838 0.04178154 -0.010350563 0.03335497 0.026610572 -0.015292734
0.025800887 0.014281753 -0.04388223 0.029639792 0.016497154 -0.029156262 -0.014448483 0.034955267
-0.045217033 0.018988859 0.018370349 0.012541655 -0.015579391 -0.009490222 -0.0082299 -0.034815453
0.045031015 0.027832773 0.007208742 -0.029506719 0.00898847 0.044906806 0.036111902 -0.019748706
-0.047246713 -0.03732555 -0.001993399 0.012125533 -0.042972792 0.04042348 0.036759716 0.03128482
0.045624983 0.018624734 0.024946515 -0.013473839 0.023061115 0.01684158 -0.032309495 0.020789485
0.0033303276 0.016248014 0.0463646 -0.018599384 0.038711186 0.04773314 -0.0024065971 0.01181075
0.026631396 -0.012527347 0.020710003 -0.04465874 0.00997296 -0.026429791 -0.04297589 -0.012256175
-0.0026182234 0.04038858 0.003901206 0.01661354 0.030614171 0.012474347 0.049479973 0.02119178
0.044990357 -0.04230364 0.015564177 -0.03707236 0.038005833 0.030956779 0.034933183 -0.016163964
0.040199596 0.040329587 0.004280042 0.037358556 0.018482361 0.0034308136 -0.0005994551 0.045068894
-0.047321595 0.021359753 -0.03309988 -0.024175948 0.009927116 0.009917092 0.034908 -0.01610402
0.021222 0.022434834 -0.012061197 -0.0059681833 0.03552154 -0.0053585693 -0.0030318275 0.026577238
00000000: a032 223c a789 3e3d 18d0 2bbc a4d4 6e3c
00000010: ecc9 32bc 4c06 63bc 0145 1d3d ed4f f2bc
00000020: c020 b03a 0060 0337 e5aa 19bd 9023 11bd
00000030: a65e d63c 80cd ceb9 06a1 943c e60b be3c
00000040: 95b7 0abd 7283 853c a063 523b 1f23 2b3d
00000050: 6895 29bc 399f 083d 6afe d93c 608e 7abc
00000060: 625c d33c 04fe 693c dabd 33bd 26cf f23c
00000070: 0a25 873c 1dd9 eebc 54b9 6cbc 412d 0f3d
00000080: 7f35 39bd 868e 9b3c 6a7d 963c 847b 4d3c
00000090: b440 7fbc e07c 1bbc b4d6 06bc a69a 0ebd
000000a0: 7172 383d 8e01 e43c 5037 ec3b 13b8 f1bc
000000b0: 6044 133c 33f0 373d 13ea 133d 0ac8 a1bc
000000c0: c585 41bd ade2 18bd b0a3 02bb 2caa 463c
000000d0: 3d04 30bd 1793 253d 5b91 163d 8324 003d
000000e0: 43e1 3a3d e692 983c a25c cc3c 60c1 5cbc
000000f0: aaea bc3c 5af7 893c f656 04bd b64e aa3c
00000100: a041 5a3b 8e1a 853c cfe8 3d3d bc5d 98bc
00000110: 9f8f 1e3d d383 433d 00b8 1dbb e081 413c
00000120: 162a da3c 803f 4dbc 06a8 a93c 15ec 36bd
00000130: a065 233c 4a83 d8bc 7d07 30bd 20ce 48bc
00000140: 8096 2bbb 7f6e 253d 60ab 7f3b 1e19 883c
00000150: 92ca fa3c 3461 4c3c 83ab 4a3d 629a ad3c
00000160: cf47 383d 9546 2dbd e400 7f3c 30d9 17bd
00000170: 01ac 1b3d 1299 fd3c 1916 0f3d 4a6a 84bc
00000180: 55a8 243d a330 253d 983f 8c3b 4905 193d
00000190: 5268 973c 80d7 603b c024 1dba 299a 383d
000001a0: 4ad4 41bd a6fa ae3c bd93 07bd a30c c6bc
000001b0: 58a5 223c 4c7b 223c b1fb 0e3d 94ec 83bc
000001c0: c2d9 ad3c 42c9 b73c 549c 45bc c090 c3bb
000001d0: 097f 113d f096 afbb a0b1 46bb 82b8 d93c

9.weight f4 [84, 120]
0.075486295 -0.0023463417 -0.096985936 -0.1072258 0.058487732 -0.022891046 -0.030296884 -0.01849795
-0.06028096 0.011645876 -0.09248409 -0.0036170203 0.11029949 -0.07738824 0.0876719 0.15449595
0.18201095 0.11946313 0.040070962 -0.21955638 0.14159697 -0.06027683 0.17647077 -0.1670808
-0.10594637 0.037659287 0.09429536 -0.123133525 0.14507827 -0.1418893 0.07692676 0.039602324
-0.055768285 0.037680052 0.17409606 0.012401334 -0.124523625 0.12162454 -0.16007473 -0.14077882
-0.059694156 0.21737137 -0.14192152 0.18278675 0.08070956 0.21061575 0.12668283 0.22254299
-0.0050018798 0.0991576 -0.07972681 -0.1535593 -0.039168112 0.082749575 0.17769982 -0.22218077
-0.0655869 -0.1074231 -0.060282826 -0.18192911 0.008312729 -0.039794445 0.012899615 -0.17158379
0.08546188 0.21426779 0.022654673 -0.01884573 0.0037527394 -0.18909001 -0.07436919 -0.18254471
0.22304897 0.21589622 -0.17928983 0.11766767 0.07693452 0.0026983076 0.030611653 0.14233783
-0.0015235108 0.1611477 0.15626001 0.15753534 0.056629542 -0.08957166 -0.014675198 -0.060924675
-0.16558579 -0.04634884 -0.112628646 0.15402822 0.031084264 0.12373462 0.17564605 -0.0030789154
-0.09720778 0.045481678 -0.10893933 0.22046882 0.019042572 0.21342799 -0.113767944 -0.0114981355
0.025245052 0.13971445 0.122949235 0.1495495 0.18424341 0.08671764 0.19287375 -0.20027307
-0.20325373 -0.13926142 0.024472827 0.13797487 0.19547418 -0.052026674 -0.034283437 0.20334719
0.13165314 0.13160156 0.15940076 0.1401153 -0.22027221 -0.001761469 0.10388294 0.16598892
0.14944775 0.07101139 0.08186862 -0.103932396 0.16522071 -0.21892071 0.15320015 0.17218208
0.054964688 -0.18636641 -0.14345148 -0.03842618 0.026048757 0.16572338 -0.007100454 0.06558255
0.20730312 -0.11223892 0.22028553 0.027400857 0.12677507 -0.21726991 0.061971564 0.005594643
-0.098060824 -0.07462806 0.17489521 -0.06416437 -0.13101757 0.024840599 -0.04531921 0.058789745
0.084124416 -0.17846961 -0.18804324 -0.20497207 -0.08776594 0.03097324 0.02050628 0.15198141
0.13313857 0.112904795 0.20944776 0.17759858 -0.024528777 0.07998314 0.090472996 -0.17684284
0.10990213 -0.024673413 0.026236495 -0.066153266 0.031563032 -0.059452333 0.18667498 -0.027401656
0.15438282 -0.12995712 0.17119586 0.0021676132 -0.05975248 0.20003998 -0.024515677 -0.038493607
0.17359056 -0.10540705 -0.010104546 -0.12828575 -0.17517811 -0.10284323 -0.063312925 0.05704391
0.047626287 0.058063235 -0.038000323 -0.03920748 0.20710182 0.14279354 -0.16645773 0.08349741
0.15965421 -0.16943209 0.07059761 0.10706324 0.06650295 -0.0070712124 0.11848742 -0.020175798
-0.09660963 0.18748921 0.18668255 -0.13901465 -0.20399483 0.0741363 0.00819315 -0.20898573
0.13278645 0.0830961 0.21920927 0.20389082 0.053794943 0.00771894 0.17043582 0.025358818
-0.21815361 0.07696258 0.1834112 0.05067603 -0.22245559 0.17658246 0.17655961 -0.21824475
-0.0117729325 -0.021471666 0.10894835 0.08468283 -0.21301664 -0.19520785 0.12375432 -0.018908026
-0.037621528 0.023652941 0.16725583 0.16303898 0.21086119 0.031728804 0.12315502 -0.034049716
00000000: 8f98 9a3d 15c5 19bb 90a0 c6bd 3399 dbbd
00000010: d590 6f3d 0186 bbbc 2c31 f8bc 0389 97bc
00000020: 2be9 76bd 58ce 3e3c 4c68 bdbd 880b 6dbb
00000030: b3e4 e13d ba7d 9ebd 538d b33d 3034 1e3e
00000040: 1461 3a3e 16a9 f43d 7321 243d 63d3 60be
00000050: ccfe 103e d6e4 76bd c1b4 343e 3b17 2bbe
00000060: 69fa d8bd a040 1a3d ed1d c13d 6e2d fcbd
00000070: 668f 143e 6e4b 11be c78b 9d3d 0c36 223d
00000080: 496d 64bd 6656 1a3d 3d46 323e f72e 4b3c
00000090: 3e06 ffbd 4916 f93d a1ea 23be 5328 10be
000000a0: dc81 74bd 9a96 5e3e e053 11be 732c 3b3e
000000b0: 0e4b a53d a8ab 573e 25b9 013e 4fe2 633e
000000c0: cfe6 a3bb 2413 cb3d cf47 a3bd a63e 1dbe
000000d0: be6e 20bd 9c78 a93d f1f6 353e 5b83 63be
000000e0: 6d52 86bd a400 dcbd 20eb 76bd a04b 3abe
000000f0: 1d32 083c 80ff 22bd e858 533c a9b3 2fbe
00000100: a306 af3d 0469 5b3e 4b96 b93c 5c62 9abc
00000110: 85f0 753b d0a0 41be e04e 98bd 00ed 3abe
00000120: f366 643e e613 5d3e c197 37be bffb f03d
00000130: d88f 9d3d 17d6 303b 4ac5 fa3c 02c1 113e
00000140: 8ab0 c7ba e703 253e a002 203e f250 213e
00000150: 61f4 673d 5971 b7bd 3e70 70bc 278c 79bd
00000160: 528f 29be 48d8 3dbd d9a9 e6bd 93b9 1d3e
00000170: 6da4 fe3c 9468 fd3d 8fdc 333e a1c7 49bb
00000180: df14 c7bd ff4a 3a3d 951b dfbd 94c2 613e
00000190: 2bff 9b3c de8c 5a3e 2bff e8bd ad62 3cbc
000001a0: b6ce ce3c 4e11 0f3e cfcc fb3d 8123 193e
000001b0: 4eaa 3c3e 0599 b13d b280 453e 6214 4dbe
000001c0: bf21 50be 8c9a 0ebe 3d7b c83c 4949 0d3e
000001d0: 622a 483e ec19 55bd ca6c 0cbd 3f3a 503e
000001e0: 15d0 063e 8fc2 063e f439 233e 637a 0f3e
000001f0: 0a8f 61be 17e1 e6ba 94c0 d43d 00f9 293e
00000200: d508 193e 6b6e 913d bcaa a73d 82da d4bd
00000210: 9e2f 293e c02c 60be 80e0 1c3e 8050 303e
00000220: a722 613d d6d6 3ebe f2e4 12be c564 1dbd
00000230: 3464 d53c 64b3 293e edaa e8bb 2550 863d
00000240: 4547 543e 85dd e5bd 8892 613e c377 e03c
00000250: 53d1 013e 017c 5ebe e5d5 7d3d 4453 b73b
00000260: 1dd4 c8bd 99d6 98bd bb17 333e 9c68 83bd
00000270: 7829 06be 837e cb3c a3a0 39bd 84cd 703d
00000280: 6c49 ac3d bdc0 36be 688e 40be 33e4 51be
00000290: a1be b3bd 98bb fd3c c9fc a73c 04a1 1b3e
000002a0: 7a55 083e a13a e73d 7979 563e 67dc 353e
000002b0: 93f0 c8bc 33ce a33d e849 b93d 4a16 35be
000002c0: 5e14 e13d e61f cabc ebed d63c 5d7b 87bd
000002d0: 3d48 013d 4a84 73bd ba27 3f3e 7079 e0bc
000002e0: 8816 1e3e 7b13 05be f84d 2f3e 840e 0e3b
000002f0: 04bf 74bd 48d7 4c3e 1ad5 c8bc 79ab 1dbd
00000300: b9c1 313e a7df d7bd 8a8d 25bc 575d 03be
00000310: e461 33be 799f d2bd 35aa 81bd e0a6 693d
00000320: c813 433d b7d3 6d3d 3aa6 1bbd 0698 20bd
00000330: 8012 543e 7838 123e e573 2abe b100 ab3d
00000340: 657c 233e 9b7f 2dbe 7b95 903d f943 db3d
00000350: b332 883d a1b5 e7bb 88a9 f23d b747 a5bc
00000360: 45db c5bd 2cfd 3f3e b629 3f3e db59 0ebe
00000370: 05e4 50be c6d4 973d 903c 063c 5b00 56be
00000380: 2cf9 073e 4a2e aa3d 6578 603e c1c8 503e
00000390: 1658 5c3d 29ef fc3b ba86 2e3e 4cbd cf3c
000003a0: a963 5fbe 8f9e 9d3d 25d0 3b3e ab91 4f3d
000003b0: 66cb 63be 08d2 343e 0bcc 343e 8d7b 5fbe
000003c0: 42e3 40bc 59e5 afbc 5020 df3d 316e ad3d
000003d0: 0921 5abe 91e4 47be e872 fd3d 01e5 9abc
000003e0: 0819 1abd d0c3 c13c 1d45 2b3e b1f3 263e
000003f0: ffeb 573e 10f6 013d b338 fc3d b777 0bbd

9.bias f4 [84]
-0.01669854 0.023411214 0.020220987 0.08640438 0.028873928 0.058857232 -0.0032462776 0.047233745
0.083548605 0.0064168572 -0.03415634 0.022884317 -0.0654996 -0.024995625 -0.08473866 -0.067589045
-0.0397813 -0.022417344 -0.06343658 0.08502023 -0.0005174726 0.009749673 -0.0076951683 0.026852436
-0.01003734 -0.00016122311 0.06400272 -0.04641683 -0.070315905 -0.076035745 0.02267719 0.024761714
-0.01573249 -0.06244179 0.054132327 -0.045406334 -0.0894183 0.08233531 -0.018869303 0.06974
-0.08401382 0.024359033 -0.07270466 0.079033494 0.0054711625 -0.014313385 0.0566729 0.084789336
-0.02252277 0.019360766 0.034907952 -0.029569782 -0.06381996 -0.026574045 0.073176965 0.048755616
0.012657091 -0.038242035 -0.0685384 -0.07384123 0.06648484 0.00413464 -0.03315294 -0.05414927
-0.027098626 0.07237668 -0.01539658 -0.020167738 0.015215501 -0.0064197034 -0.07707918 -0.04289266
-0.0712622 -0.08221125 0.029593363 -0.025320224 0.0030673742 0.0399559 -0.059535254 0.043659255
-0.041722815 -0.082840756 0.022425406 -0.023104593
00000000: 60cb 88bc e0c8 bf3c 7ca6 a53c c8f4 b03d
00000010: 0489 ec3c 4814 713d 80bf 54bb 2c78 413d
00000020: 881b ab3d 8044 d23b 85e7 0bbd e477 bb3c
00000030: a724 86bd a0c3 ccbc 768b adbd 206c 8abd
00000040: b7f1 22bd 94a4 b7bc 0aeb 81bd 161f ae3d
00000050: 00a7 07ba 18bd 1f3c c027 fcbb a4f9 db3c
00000060: a873 24bc 000e 29b9 dc13 833d 931f 3ebd
00000070: c901 90bd a1b8 9bbd 84c5 b93c 14d9 ca3c
00000080: 6ce1 80bc f6c2 7fbd dcb9 5d3d fefb 39bd
00000090: f120 b7bd 6a9f a83d cc93 9abc d8d3 8e3d
000000a0: 700f acbd 988c c73c 2ee6 94bd 50dc a13d
000000b0: 7047 b33b b082 6abc d821 683d 08a6 ad3d
000000c0: ac81 b8bc 789a 9e3c a4fb 0e3d 543c f2bc
000000d0: 0ab4 82bd d0b1 d9bc cedd 953d f8b3 473d
000000e0: b05f 4f3c aea3 1cbd dc5d 8cbd 123a 97bd
000000f0: 3429 883d e07b 873b 61cb 07bd a0cb 5dbd
00000100: f0fd ddbc 3a3a 943d f041 7cbc d036 a5bc
00000110: 704a 793c 605c d2bb b0db 9dbd 37b0 2fbd
00000120: ebf1 91bd 5f5e a8bd c86d f23c 5c6c cfbc
00000130: 0006 493b cca8 233d 3ddb 73bd 0cd4 323d
00000140: 8be5 2abd 6aa8 a9bd 7cb5 b73c d845 bdbc

11.weight f4 [10, 84]
0.20398988 0.2190783 0.12041129 0.1891736 0.16597424 0.26087275 -0.16421832 0.21151382
-0.068724185 0.082778744 0.14681171 -0.15692641 -0.22318608 -0.26486227 -0.08049329 -0.10625359
0.10555426 0.030881729 -0.19617222 -0.15154764 0.22181737 0.0662057 0.22127801 -0.2031227
0.16323246 -0.070941195 0.08077293 -0.18019573 0.09637746 0.13765998 0.05120087 -0.10088165
0.019656869 -0.20018059 -0.026102519 -0.011525395 0.14015609 0.2605065 -0.06305906 0.23303379
0.0023023644 -0.11284476 0.10464488 0.1853452 -0.1097937 -0.24878155 0.024506537 0.016021928
0.21573214 0.18841648 0.22951233 -0.084638335 0.17260349 -0.23902452 -0.07305242 -0.018969027
0.009787017 -0.03166985 0.12417144 0.08553259 -0.12682737 0.007963412 0.059869826 -0.09268993
-0.19003409 0.029158898 0.04305592 -0.22611988 -0.05292853 0.1651909 -0.21063747 0.256364
-0.2391968 -0.19285989 0.017367376 -0.26300672 -0.18409811 0.016919712 0.22636916 0.14201765
0.24379678 0.0568559 -0.11665155 0.20034939 0.20311055 0.21306635 0.23074402 -0.0036353718
0.2308551 -0.068194866 0.10217184 -0.2590549 -0.06639861 0.05663221 -0.057229456 -0.20136112
-0.11555974 -0.15993302 0.144422 0.007723698 -0.118692875 -0.117447875 0.13205925 -0.23355629
-0.10664859 0.12477573 -0.10446937 0.090124615 0.22860143 0.18303965 -0.014900678 -0.04712728
0.18136033 -0.19279002 0.11292269 0.11586012 -0.04711256 -0.12837124 0.1003368 0.20118818
-0.0899406 0.005809962 0.08510376 0.2582423 0.0512918 -0.14083154 -0.18562366 -0.14872165
-0.01560155 -0.07722885 -0.17444125 0.108511284 0.094541684 0.10892084 -0.07479812 -0.16488715
0.23492914 -0.22370665 0.25215042 0.032681596 0.19575152 -0.011608661 0.14781463 -0.034421742
-0.13294922 0.15677792 -0.2216206 -0.13115881 0.091383085 0.030747406 0.24379513 0.046979897
-0.18937269 -0.20372373 0.17743295 0.13654387 0.22166377 0.21308824 -0.17811565 -0.13964981
0.17176563 -0.06162388 -0.0013966478 -0.24630342 -0.0025732066 0.25034437 -0.039333746 0.03341734
0.13937224 0.19982122 0.08906692 -0.19241433 0.010476021 -0.17169133 0.024210844 -0.047221445
-0.017597772 0.033246092 -0.25265715 -0.111808926 0.03461569 -0.16568704 0.09716966 0.011903254
-0.034757916 0.14383507 0.11239786 -0.048177037 0.24048433 0.046308734 -0.0044847443 -0.19687319
0.17363004 0.06785468 0.18371406 0.116315395 -0.052249607 0.19703671 -0.14205933 -0.06579692
-0.13279758 -0.16637115 -0.0055735284 -0.2168059 -0.21478917 -0.24189728 -0.20823425 -0.17903931
-0.19097286 -0.2567406 -0.14919053 -0.21220933 0.021647451 -0.048862282 -0.23225999 -0.11141596
0.20165563 -0.1914289 -0.16532275 0.13332501 -0.26370257 0.23233019 0.230688 0.045262672
0.066283435 0.12365314 -0.18912709 0.056957055 -0.09773044 -0.19950505 -0.012778943 0.21968152
-0.24232098 0.19669078 -0.20039436 -0.08825972 -0.03214297 -0.10689036 0.07791824 -0.24751097
0.033307932 -0.1934585 0.10485363 -0.23438865 -0.23537633 -0.091737986 -0.0383627 -0.025544824
-0.17710304 -0.0106380135 0.1193292 0.09836569 0.15251033 0.11099745 -0.09225442 -0.23492397
00000000: b9e2 503e 1056 603e 329a f63d b9b6 413e
00000010: 27f5 293e 1d91 853e d928 28be 1497 583e
00000020: 44bf 8cbd e787 a93d cf55 163e 51b1 20be
00000030: e48a 64be 079c 87be abd9 a4bd 7b9b d9bd
00000040: d52c d83d aefb fc3c 5fe1 48be 4e2f 1bbe
00000050: 1824 633e db96 873d b496 623e 66ff 4fbe
00000060: 6926 273e 9e49 91bd 476c a53d 3b85 38be
00000070: 8c61 c53d bdf6 0c3e 01b8 513d 0a9b cebd
00000080: 7107 a13c 24fc 4cbe f3d4 d5bc 03d5 3cbc
00000090: 1485 0f3e 1c61 853e 1c25 81bd 69a0 6e3e
000000a0: 44e3 163b 271b e7bd 0e50 d63d 22cb 3d3e
000000b0: 85db e0bd 97c0 7ebe efc1 c83c 6b40 833c
000000c0: e3e8 5c3e 40f0 403e 4805 6b3e dd56 adbd
000000d0: f8be 303e d8c2 74be 829c 95bd ef64 9bbc
000000e0: b959 203c 3fb8 01bd 994d fe3d b62b af3d
000000f0: 09df 01be f978 023c 103a 753d 38d4 bdbd
00000100: 4c98 42be a4de ee3c 685b 303d f88b 67be
00000110: 96cb 58bd ce27 293e 59b1 57be 2442 833e
00000120: 02f0 74be 107d 45be 0746 8e3c d1a8 86be
00000130: 3784 3cbe 359b 8a3c 51cd 673e 136d 113e
00000140: dda5 793e bbe1 683d 02e7 eebd 6428 4d3e
00000150: 36fc 4f3e 112e 5a3e 2948 6c3e 6b3f 6ebb
00000160: 4865 6c3e c0a9 8bbd 783f d13d d8a2 84be
00000170: fffb 87bd 2df7 673d 6f69 6abd 9c31 4ebe
00000180: 96aa ecbd 7bc5 23be 5ce3 133e 1317 fd3b
00000190: 4015 f3bd 8388 f0bd 8a3a 073e 6129 6fbe
000001a0: 936a dabd 6b8a ff3d 09f4 d5bd 4193 b83d
000001b0: 7e16 6a3e bf6e 3b3e f921 74bc 8908 41bd
000001c0: 86b6 393e bf6a 45be 0344 e73d 1248 ed3d
000001d0: 1af9 40bd c073 03be 617d cd3d 4604 4e3e
000001e0: c732 b8bd 7e61 be3b e14a ae3d 5638 843e
000001f0: 5a17 523d 2536 10be 2114 3ebe 7d4a 18be
00000200: a59d 7fbc 292a 9ebd baa0 32be 2a3b de3d
00000210: 129f c13d e411 df3d c22f 99bd 2dd8 28be
00000220: 4491 703e 5b13 65be dc19 813e 23dd 053d
00000230: 1673 483e 4132 3ebc b85c 173e d0fd 0cbd
00000240: d723 08be 648a 203e 83f0 62be 7f4e 06be
00000250: 0e27 bb3d fce1 fb3c 6ea5 793e fe6d 403d
00000260: eaea 41be f49c 50be fcb0 353e 28d2 0b3e
00000270: d4fb 623e ce33 5a3e f363 36be 5c00 0fbe
00000280: 54e3 2f3e 5269 7cbd b90f b7ba f736 7cbe
00000290: 3ea3 28bb 232d 803e 6c1c 21bd 9fe0 083d
000002a0: 99b7 0e3e ef9d 4c3e b868 b63d 4308 45be
000002b0: 9ea3 2b3c dacf 2fbe d255 c63c 466b 41bd
000002c0: 3429 90bc 0e2d 083d 475c 81be 14fc e4bd
000002d0: 2fc9 0d3d dda9 29be e300 c73d de05 433c
000002e0: 515e 0ebd 8049 133e d930 e63d 4955 45bd
000002f0: 8641 763e 3aae 3d3d c3f4 92bb 2099 49be
00000300: 13cc 313e 65f7 8a3d 8a1f 3c3e c436 ee3d
00000310: af03 56bd fec3 493e 0078 11be 89c0 86bd
00000320: 17fc 07be 335d 2abe 25a2 b6bb 5e02 5ebe
00000330: b1f1 5bbe ecb3 77be 5c3b 55be 1556 37be
00000340: 648e 43be 8173 83be 67c5 18be 674d 59be
00000350: ff55 b13c d123 48bd 90d5 6dbe 0d2e e4bd
00000360: d07e 4e3e f005 44be 5e4a 29be 5a86 083e
00000370: 0604 87be f7e7 6d3e 7a39 6c3e 5a65 393d
00000380: 9cbf 873d dc3d fd3d 88aa 41be cd4b 693d
00000390: e626 c8bd 0d4b 4cbe c65e 51bc 31f4 603e
000003a0: fe22 78be 4f69 493e 2e34 4dbe 83c1 b4bd
000003b0: 59a8 03bd 55e9 dabd 9993 9f3d 8473 7dbe
000003c0: e66d 083d fc19 46be 80bd d63d 9403 70be
000003d0: 7e06 71be 20e1 bbbd 3522 1dbd 6143 d1bc
000003e0: 805a 35be 104b 2ebc de62 f43d f373 c93d
000003f0: ab2b 1c3e a252 e33d e3ef bcbd e98f 70be

11.bias f4 [10]
0.025853597 0.10395361 0.10836356 0.081318 -0.07147213 0.023268752 0.10751309 0.050282903
0.05083794 0.094858654
00000000: ecca d33c a1e5 d43d b7ed dd3d 0d8a a63d
00000010: fb5f 92bd 1c9e be3c d32f dc3d 72f5 4d3d
00000020: 723b 503d 4145 c23d
